model.tflite (tflite, 619816 bytes, 16 tensors)

model_6/dense_6/BiasAdd/ReadVariableOp f4 [128]
000000 34 ef a7 bb 3b f3 29 bc b5 85 24 3c ad 53 3a bd
       -0.005124951 -0.010372932 0.010041644 -0.045489956
000010 da ad 5a bc 7a be 1e bc 30 0e 8f 3c 6a c6 c4 bb
       -0.0133471135 -0.009688968 0.01746282 -0.006005098
000020 47 fc a8 3c 3d c7 c4 bb b0 df 73 bb 6f e7 0a bc
       0.020628108 -0.0060051964 -0.0037212186 -0.00847803
000030 e5 a6 59 bc f7 c6 c4 bb 6d 97 ad 3b a1 bd 8d ba
       -0.01328442 -0.006005164 0.0052975924 -0.001081396
000040 74 9e c3 bb 0b 8e 08 3c 25 c4 c4 bb d5 c3 c4 bb
       -0.005969817 0.008334647 -0.0060048276 -0.0060047903
000050 6a 48 e6 bb 49 20 12 bc 23 c5 c4 bb 93 c7 c4 bb
       -0.0070276754 -0.00891883 -0.006004946 -0.0060052364
000060 fd 0f fc bc 2f c6 c4 bb 2f c8 c4 bb 6c c1 c4 bb
       -0.030769343 -0.0060050706 -0.006005309 -0.006004503
000070 9b 1e be bb 72 f2 b9 3b f3 c2 81 3b 40 9b 1a 3c
       -0.0058019883 0.0056746537 0.0039600073 0.009436429
000080 35 c6 c4 bb ab c4 c4 bb a4 59 89 3b 82 6b 3e bb
       -0.0060050734 -0.00600489 0.004191594 -0.002905578
000090 c4 3b 8a 3a f0 32 ab bb 86 d4 f2 3a ba c6 c4 bb
       0.0010546376 -0.005224578 0.0018526472 -0.0060051354
0000a0 a3 c4 c4 bb 6b c6 59 bb 02 80 82 bb 80 af 0e bc
       -0.0060048862 -0.0033229839 -0.003982545 -0.008708835
0000b0 fa c6 c4 bb 35 48 07 bc b5 3d 96 3b 57 b9 c4 bb
       -0.006005165 -0.008256962 0.004584993 -0.0060035395
0000c0 ae b8 16 bc f5 c6 c4 bb 86 71 fd ba b8 a9 c1 bb
       -0.0091993045 -0.006005163 -0.0019336201 -0.0059101246
0000d0 93 33 24 3c a4 f2 a7 bb 0e cf df 3b 65 99 c4 bb
       0.010022062 -0.0051253606 0.0068301028 -0.0059997314
0000e0 f1 0b cc bb 58 c7 20 bc 05 c8 c4 bb 36 a4 c5 bb
       -0.0062270095 -0.009813152 -0.0060052895 -0.0060315384
0000f0 c1 e8 bb bb 31 bf 00 bc 0f 9b ae 3b 04 5f 90 ba
       -0.0057345335 -0.007858084 0.005328543 -0.0011014645
000100 9a 99 08 3c d1 52 bd 3b a1 76 b2 bc 0a ff 16 bc
       0.008337403 0.0057776948 -0.021785082 -0.0092160795
000110 12 31 af bb 1e c3 c4 bb b2 9f d9 3b 68 23 06 bc
       -0.005346426 -0.006004705 0.0066413516 -0.008187152
000120 0d 61 c1 3b 8b f2 fc bb 92 00 23 3c d9 6c 13 bc
       0.005901462 -0.007719343 0.009948866 -0.008998119
000130 e4 7e cf 3b 5f e9 c6 bb e7 e8 c3 bb ce ed 03 bc
       0.006332265 -0.0060703005 -0.005978692 -0.0080523025
000140 dc 07 a7 3b f5 9a b5 bb 54 b0 25 bb 19 c2 c4 bb
       0.0050973725 -0.005542154 -0.0025282102 -0.0060045836
000150 4b 5d b2 bc 3e ba c4 bb db 93 7f bc 2d 23 b6 bb
       -0.021773001 -0.006003647 -0.015599216 -0.0055583925
000160 12 c7 c4 bb b9 12 b6 bb 3f ff f0 bb 2b 64 8f bb
       -0.0060051763 -0.005556431 -0.0073546465 -0.0043759546
000170 d7 7e 1a 3c 42 83 61 3b 52 dd a8 bb 50 c1 91 bb
       0.009429655 0.003441051 -0.0051533366 -0.0044480935
000180 41 b2 c4 bb f7 7f e0 bb f5 ad 33 3c bc e0 bf bc
       -0.006002695 -0.006851192 0.010966768 -0.023422591
000190 a4 c7 c4 bb 4a 75 ba 3b 87 a4 dd bb ec c7 c4 bb
       -0.0060052443 0.0056902515 -0.006763998 -0.006005278
0001a0 8e 1c 89 3c 52 03 1c ba e5 88 74 3c b5 c7 c4 bb
       0.016737249 -0.00059514225 0.014925216 -0.0060052522
0001b0 f1 0d 00 bc 0e 4b d5 bb 12 8a 18 bc 3b 13 04 bc
       -0.007815824 -0.0065091914 -0.009310262 -0.0080612255
0001c0 cc ef 85 bb f0 79 99 bb 8e 55 06 3b 51 4e f4 bb
       -0.004087424 -0.0046837255 0.0020497772 -0.007455625
0001d0 60 c8 c4 bb 0e d5 12 bc c8 03 be b8 75 b9 25 3c
       -0.006005332 -0.008961929 -9.06061e-05 0.010115017
0001e0 a3 d1 3d 3c 1a 8b b6 bb 9a 11 8b 3a bf b9 c4 bb
       0.011585626 -0.0055707814 0.0010610104 -0.006003588
0001f0 b9 3d 94 3b 12 fd 2c bb 89 b2 5f 3c 4c bc c4 bb
       0.0045239595 -0.002639596 0.013653406 -0.006003892

model_6/digit0/BiasAdd/ReadVariableOp f4 [10]
000000 d3 78 7f bd 84 07 d7 bc 86 3c 51 bd 32 6a 66 3c
       -0.062371086 -0.0262487 -0.05108311 0.014063405
000010 cd 3d c9 39 b2 57 9d 3c d1 6e 9b 3d 37 b0 d0 bc
       0.00038383753 0.019206855 0.07589496 -0.02547465
000020 93 2f a2 3d 9d cb 2b bd
       0.0791923 -0.041942228

model_6/digit1/BiasAdd/ReadVariableOp f4 [10]
000000 52 5a 84 bd 8b 64 16 bd 5f c8 a2 39 6b 29 96 3c
       -0.0646254 -0.03671698 0.00031048336 0.018330297
000010 0a 12 b6 bc 18 de 9f bc c9 2f 40 bd 7e 3a be 3c
       -0.022225399 -0.019515082 -0.04692057 0.02322125
000020 84 a1 81 3d 14 80 69 3d
       0.06329635 0.05700691

model_6/digit2/BiasAdd/ReadVariableOp f4 [10]
000000 df a8 7c bd 3b 6a f1 bc 99 a7 f0 3c 28 89 1b 3d
       -0.061684486 -0.0294696 0.029376792 0.0379726
000010 ed 95 d7 bd 72 a5 14 3b e8 83 cd bc 69 89 75 3d
       -0.10526643 0.002268162 -0.025087312 0.059945498
000020 c8 82 45 3d a1 67 25 3d
       0.048220426 0.04038203

model_6/digit3/BiasAdd/ReadVariableOp f4 [10]
000000 ed 40 7d bd 7e c1 27 3d 07 71 f1 ba 01 6c b8 3c
       -0.061829496 0.040956013 -0.0018420526 0.022512438
000010 47 2e d1 3d d1 53 94 bb 21 97 02 bd a9 af e7 bc
       0.10213905 -0.0045265933 -0.03188241 -0.028282003
000020 8f 58 3e 3d c0 b6 33 bd
       0.046471175 -0.043875456

model_6/conv2d_18/BiasAdd/ReadVariableOp f4 [24]
000000 74 70 e6 bd 76 8a 03 3e 7c 74 58 3b 7a a8 84 bb
       -0.112519175 0.12845787 0.0033028414 -0.0040484043
000010 ca 3c 7a bd e9 42 aa bd 2d 00 22 3e 4f 27 06 be
       -0.06109313 -0.08313543 0.1582038 -0.13100933
000020 bc b6 e5 bd 13 1b 92 3d 82 ec 31 bc b9 c1 a7 3d
       -0.112164944 0.0713407 -0.0108596105 0.081912465
000030 4a cb a5 bd 6b f3 a0 bb d4 5b 77 3d 44 c3 e1 bd
       -0.08095415 -0.00491183 0.06039031 -0.11023572
000040 33 63 75 3d 2f a0 c7 bd a1 96 e1 bd 7b 53 dc 3d
       0.059909057 -0.097473495 -0.11015058 0.1075811
000050 0a c2 f6 bd 7e 67 42 bc a6 9e 05 ba 1f 4e e1 bb
       -0.12048729 -0.011865495 -0.0005097188 -0.006875768

model_6/conv2d_19/BiasAdd/ReadVariableOp f4 [48]
000000 dc 62 84 3d 3d 2b 1c 3b 2b b4 55 bd 4c d4 7f 3d
       0.064641684 0.0023829483 -0.052173775 0.06245832
000010 57 e3 cb bc 6c 2f 64 3d 47 f4 2c bd 72 4f 98 3b
       -0.024888678 0.055709288 -0.04222515 0.0046481425
000020 d2 4a 40 bd 22 84 74 bd 27 c1 66 bc 9e fc ca bc
       -0.046946354 -0.059696324 -0.014084137 -0.02477866
000030 16 7e 12 bd fe 86 1a bd 67 01 91 bd d1 91 0e 3d
       -0.035764776 -0.037726395 -0.070803456 0.03480703
000040 2f eb bc bc 3b 10 7d bc 2d 57 e5 bb a0 69 df 3d
       -0.023061363 -0.015445764 -0.0069989176 0.10908818
000050 7e 8d c0 bd 17 0d 2a ba 29 3c e1 bd c1 17 88 bd
       -0.094019875 -0.0006486936 -0.10997803 -0.06645156
000060 19 a0 fa bd 8e 75 0f bd 81 d3 92 3d 92 c2 be bc
       -0.122375675 -0.03502422 0.071692474 -0.023286138
000070 c7 09 7f bd ad e1 a5 39 6d da c9 bd db f0 b2 bd
       -0.062265184 0.00031639394 -0.098561145 -0.08737346
000080 e7 20 ef 3d 3c 3c 63 bd 51 9c 2b bc 67 91 7d 3b
       0.116761975 -0.055477366 -0.01047428 0.0038691403
000090 27 71 3e bd 94 48 42 bd f4 79 a0 3c 99 9a 8a bd
       -0.04649463 -0.047432497 0.019589402 -0.067677684
0000a0 19 bf d9 bd a0 9d 9d bc 13 4a dc bd ba 13 a1 bd
       -0.10632152 -0.0192402 -0.10756316 -0.07865091
0000b0 98 4f 36 bd 83 c5 c9 3c 6f e5 d8 bd 35 d4 87 bd
       -0.0445095 0.024630314 -0.10590636 -0.06632272

model_6/conv2d_20/BiasAdd/ReadVariableOp f4 [96]
000000 2e b3 75 bd a2 05 45 bd e8 6d 9f bc 83 20 e4 bc
       -0.059985332 -0.048101075 -0.019461587 -0.027847534
000010 d7 bf ea bc c6 55 5a bd 54 c3 99 bc 59 f4 50 bd
       -0.02865593 -0.053304456 -0.018769898 -0.051014278
000020 e9 bf b3 bc 2d d3 13 bc 24 39 e0 bb ca cf 5b bd
       -0.021942096 -0.009022516 -0.006842749 -0.05366496
000030 93 29 4f bb c9 18 ee bc f8 00 36 bc 4d be 00 bd
       -0.0031610474 -0.029064553 -0.011108629 -0.031431485
000040 2b 94 30 bd 63 e3 0b bd 97 3c d0 bc 1c 76 02 bd
       -0.043110054 -0.0341524 -0.025419516 -0.03185092
000050 13 d8 23 bd d4 aa dd bc 6a 22 06 bd 90 4d 90 bd
       -0.040000986 -0.027058996 -0.032747664 -0.07046044
000060 a7 3f 6e bc 37 d5 71 bc d6 39 23 bd dc af 2c bd
       -0.014541543 -0.014760307 -0.03985008 -0.0421599
000070 b4 25 85 bd f5 77 67 bd 3b 0d 29 bd 12 28 c1 bc
       -0.06501332 -0.056510884 -0.041272383 -0.023578677
000080 ac 03 4e bd 72 62 5c 3a ce f5 97 bd 83 dd 41 bd
       -0.05029647 0.00084070035 -0.074199304 -0.04733039
000090 19 2a 36 bd d0 65 56 bd db 08 06 bd 55 38 04 bd
       -0.04447374 -0.05234319 -0.03272329 -0.032280285
0000a0 ab ee 8f bc f7 0c 0c bd d0 cd 27 bd 09 4c 48 bd
       -0.01756986 -0.03419205 -0.040967762 -0.048900638
0000b0 a3 8c 09 bd 46 96 1b bd c3 31 d7 bc ae 92 02 bd
       -0.033581387 -0.03798511 -0.026268845 -0.031878166
0000c0 e6 84 0e bd 53 85 cc bc 79 6c a7 bc 25 b6 df bc
       -0.03479471 -0.024965918 -0.020437466 -0.027308533
0000d0 7a 71 8a bc c1 13 1f bd 01 ce 86 bc ca 0b 07 bd
       -0.016899813 -0.0388372 -0.016455652 -0.032970227
0000e0 ed a0 15 bd 69 db 2a bd 6d b0 d8 bc 29 83 07 bc
       -0.036530424 -0.041713152 -0.026451314 -0.008271017
0000f0 a0 cb 77 bd 79 05 9a bd 40 52 00 bd 49 7c 56 bd
       -0.060496926 -0.07520575 -0.03132844 -0.05236462
000100 85 95 db bc 79 56 1d bd 83 42 de 3c d6 bd 84 3b
       -0.026804695 -0.038412545 0.027131325 0.0040509505
000110 ff 27 56 bd 31 b2 93 bd f7 10 ee bc 78 3b 35 bd
       -0.052284237 -0.07211722 -0.029060824 -0.044246167
000120 6a a7 40 bd 3b 4d 28 bd 7b de fd 3b 10 85 20 bd
       -0.04703466 -0.041089278 0.007747469 -0.0391894
000130 21 aa ce bc 00 08 9a bd 2b e5 05 bd 1b 76 28 bd
       -0.025227608 -0.07521057 -0.032689255 -0.04112826
000140 c2 9d 18 bd 4e 54 10 bc 95 44 a4 bc bd 26 11 bd
       -0.037259825 -0.008809162 -0.020052234 -0.035437334
000150 a5 05 da bc 5b f5 9c bd 91 80 3f bd 97 12 31 3c
       -0.02661402 -0.07663985 -0.04675347 0.010807655
000160 db 2f 31 bd bc b6 5d bd 33 86 e8 bc 5b ed 06 bd
       -0.04325853 -0.054129347 -0.028384304 -0.032941204
000170 c7 2c 34 bd 0a c1 1a bd c4 5d d8 bc 33 a1 ae bc
       -0.043988016 -0.037781753 -0.026411898 -0.0213171

model_6/conv2d_18/Conv2D f4 [24, 3, 3, 1]
000000 ed 81 f5 3d a0 24 32 3e a2 bd 38 3e 72 0e 30 3d
       0.11987672 0.17396784 0.18041089 0.042982526
000010 f2 be b0 bc a7 ff f6 3b 92 f7 3b 3e 62 86 18 3e
       -0.021575425 0.0075378004 0.1835616 0.14895013
000020 22 fb 63 3e ec e1 86 be d7 f4 8f bc 25 2b 5a be
       0.22263768 -0.2634424 -0.017572803 -0.21305521
000030 a4 5f 4d 3b ba 12 f7 bd 53 17 37 be 83 33 f0 3d
       0.0031337524 -0.12064119 -0.17879991 0.11728575
000040 2e 1e eb 3c 45 2c 6a 3e ec 85 84 3e b5 df e5 ba
       0.028700914 0.2286845 0.25883424 -0.0017537983
000050 3a 6a 86 be 2a 3b a0 3e 6e bd e3 bd 2e dc ab be
       -0.2625292 0.3129514 -0.11120115 -0.3356642
000060 a4 40 5e 3e 2b c1 ef 3c 00 a8 0a be ab 37 a5 be
       0.21704346 0.029266914 -0.1354065 -0.32269034
000070 5e 34 29 be 44 37 bf be 1f aa 05 be d9 69 02 be
       -0.16523883 -0.37346852 -0.13053177 -0.1273569
000080 03 4e 34 3e ca cf 10 3e 6b 00 7d 3e 1a 03 2f 3e
       0.17607884 0.14141765 0.2470719 0.17091027
000090 f8 59 46 bd 0d 81 28 3e d6 30 35 be 6c 7c b9 3d
       -0.048425645 0.16455479 -0.1769441 0.09056935
0000a0 68 3a 4d 3e 02 89 56 be 62 31 06 3e 73 f9 54 3e
       0.20041811 -0.20950702 0.13104776 0.20798282
0000b0 5e f8 7b 3d 72 24 07 3e 3d a9 5b 3e 4f 34 09 be
       0.06151616 0.13197497 0.21451278 -0.1339886
0000c0 a5 e1 a9 bd 4a a4 4a 3e 8a 39 55 3d 14 99 8a bd
       -0.082949914 0.19789234 0.052056827 -0.067674786
0000d0 4b 17 1d 3e 24 ff 73 3d fc 34 60 be 7d ce f7 bd
       0.15340917 0.059569493 -0.21895212 -0.120999314
0000e0 27 57 3d be a9 35 0b bd 5a b4 d9 bd d9 42 07 be
       -0.18490277 -0.03398672 -0.106301025 -0.13209094
0000f0 a4 ec 68 3d a0 d7 5a 3e 02 71 e7 3d 37 5e 22 3e
       0.056866303 0.21371317 0.113008514 0.15856253
000100 2c 59 10 3e 2c d0 4c 3d 03 99 2e 3e c3 7b d5 bd
       0.14096516 0.050003216 0.17050557 -0.10423996
000110 43 d0 ea bd 28 1c 4f 3e 3e e7 5b 3e 22 c0 c3 3d
       -0.11465504 0.20225585 0.2147493 0.09558131
000120 cf f0 e1 bc f4 9b bd 3d 55 a1 58 3e 1b 91 65 3e
       -0.027580647 0.09258261 0.21155293 0.22418635
000130 b8 89 19 3e 60 c4 06 3e f8 35 c9 ba 6c 55 26 3e
       0.14993942 0.13160849 -0.0015351167 0.16243523
000140 e0 12 0b be 79 89 7a 3e ff df dc 3d f6 33 7d bc
       -0.13581419 0.24466504 0.10784911 -0.015454283
000150 26 25 cc bd e1 45 8d 3d fd 37 06 3e e7 6f 10 be
       -0.09968023 0.06898094 0.13107295 -0.14105187
000160 e5 eb 8e be bc 93 49 be 25 f6 fa bd b6 45 53 3d
       -0.27914348 -0.19685262 -0.122539796 0.051580153
000170 d2 c1 51 3d 7e d9 6c be 4d aa 4d 3d 63 29 e4 3d
       0.051210232 -0.23129842 0.05021124 0.111407064
000180 5f 42 c2 be 39 09 26 3e 8f 94 68 3e 56 66 78 be
       -0.37941262 0.16214456 0.2271292 -0.24257788
000190 ad 18 eb bd c6 77 84 be 50 ee 08 bc fd 47 1c be
       -0.11479316 -0.2587263 -0.008357599 -0.15261836
0001a0 17 31 11 be f1 94 8e 3e 81 52 8f 3e 40 00 26 bc
       -0.14178883 0.27848008 0.27992633 -0.010131896
0001b0 e3 1b 4b bc a3 05 8b bd 2a 4c e2 3d c0 88 14 be
       -0.012396785 -0.067881845 0.110496834 -0.14505291
0001c0 e7 5d 2d 3e 75 74 03 3e 93 12 00 be b3 33 34 3e
       0.16930352 0.12837394 -0.12507086 0.17597847
0001d0 ff c6 87 3e c4 c0 20 3c 8b fe 85 be e6 fc 34 3e
       0.2651901 0.009811584 -0.26170763 0.17674598
0001e0 1c c5 93 be 55 e4 4e 3d 5f 9a ff 3d 7f bb 05 be
       -0.2886132 0.050510723 0.12480616 -0.13059805
0001f0 5e 80 0a 3c 35 9e 43 3e db f4 94 3e a4 28 e1 3d
       0.008453457 0.1910332 0.2909306 0.1099408
000200 8c f8 65 3e b6 29 67 be bc f3 d1 3c 8c ba 44 3d
       0.22458094 -0.22574505 0.025628917 0.048029467
000210 ab 65 a6 be c2 ee 86 be e0 75 67 be 29 9b 91 ba
       -0.32499442 -0.26354033 -0.2260356 -0.0011108863
000220 7c 8d 37 bc 33 ea 95 3d e9 49 9c 3e 68 18 7d 3d
       -0.011203166 0.073200606 0.3052514 0.061790854
000230 15 89 76 3e 46 72 3b 3d 1e 28 52 3e 13 c9 32 be
       0.2407573 0.045763277 0.20523116 -0.17459516
000240 56 d1 43 be 3f 7b 37 be 59 1e 5e be c3 4c 3f 3d
       -0.19122824 -0.17918108 -0.21691264 0.046704065
000250 91 81 b3 3d 99 6d 2a be 07 08 74 3d eb b9 60 3e
       0.08764947 -0.1664337 0.059577968 0.21945922
000260 0b bf 31 3e 32 19 0d 3e 21 35 1d 3e 96 e9 85 3e
       0.17358033 0.13779142 0.15352298 0.26154774
000270 31 4f 87 3e 67 07 30 3e ae 98 20 3d 55 42 0a 3c
       0.26427606 0.17190324 0.039208107 0.008438666
000280 f9 19 ab 3d d8 6b 17 be ef d1 29 3d 7e 29 83 3e
       0.08354563 -0.14787233 0.041459974 0.25617594
000290 1e a4 47 3e 02 1f 7b 3b cf 46 91 bc 1e ec d7 bb
       0.194962 0.0038318043 -0.01773396 -0.0065894267
0002a0 1f 89 ea 3d 77 65 1c 3e 13 9a 67 3e 59 4f 6c 3e
       0.11451935 0.15273081 0.22617368 0.23077144
0002b0 f2 a2 8b 3e 4a d1 a3 bd d3 c5 2b be 4d 8f 11 be
       0.27272755 -0.07998903 -0.16774683 -0.14214821
0002c0 a6 26 c3 3b 33 8c 83 be 90 85 0d be db b8 8c be
       0.005955535 -0.256929 -0.13820481 -0.27484784
0002d0 19 2a c6 3d 2a 69 20 3e 04 11 30 be 0c 77 1b 3e
       0.09675998 0.15665117 -0.17193991 0.15182132
0002e0 b6 be 28 3b b0 69 32 be 35 1c d4 3d 91 b9 78 3e
       0.0025748438 -0.17423129 0.103569426 0.24289538
0002f0 8f 8c d0 3d e6 81 1a be 13 a9 f4 3d 90 a9 20 3e
       0.101830594 -0.15088615 0.11946311 0.15689683
000300 42 51 9b be fc 91 17 3e 96 fd 1e 3e 5d 70 71 be
       -0.30335432 0.14801782 0.15526423 -0.2357802
000310 13 08 14 3e 86 21 96 3d f4 03 02 3e 45 c4 09 3e
       0.14456205 0.07330613 0.1269682 0.13453777
000320 4e f0 90 be 2f bd 25 3e eb c5 28 bd 5e 6b ba bd
       -0.28308338 0.16185449 -0.041204374 -0.0910251
000330 22 96 38 be 90 da f6 bd 33 18 81 3e e2 21 81 3e
       -0.18026021 -0.12053406 0.25213775 0.25221163
000340 9a fc 70 be 47 5a 00 be a7 c2 27 bd 29 41 c1 3d
       -0.2353386 -0.12534438 -0.04095712 0.094362564
000350 4f b6 7c 3c a0 4c e6 bd 34 41 ed 3c 2d 95 80 3e
       0.015424325 -0.11245084 0.028961755 0.25113812

model_6/conv2d_19/Conv2D i1 [48, 3, 3, 24]
000000 ee e8 3e c7 ef 25 df 25 f2 10 3f ba 13 33 ee 0f
       -18 -24 62 -57 -17 37 -33 37 -14 16 63 -70 19 51 -18 15
000010 d9 f9 0f 19 10 45 33 00 07 fd 16 db 06 21 f7 1a
       -39 -7 15 25 16 69 51 0 7 -3 22 -37 6 33 -9 26
000020 ff 1b 38 dd 17 30 f8 21 d6 26 db f3 33 03 38 0d
       -1 27 56 -35 23 48 -8 33 -42 38 -37 -13 51 3 56 13
000030 dd fe 1c 07 ba b9 21 cd b3 f6 e7 f5 d9 e2 e7 d8
       -35 -2 28 7 -70 -71 33 -51 -77 -10 -25 -11 -39 -30 -25 -40
000040 d5 b4 cd e2 ee 06 d7 d0 fa e5 d3 d3 e9 24 d9 f6
       -43 -76 -51 -30 -18 6 -41 -48 -6 -27 -45 -45 -23 36 -39 -10
000050 12 17 4d fc 39 20 26 db 0b d2 1e 2c f3 4b f8 0b
       18 23 77 -4 57 32 38 -37 11 -46 30 44 -13 75 -8 11
000060 f4 d5 05 ff 08 07 00 fa 1f 19 19 17 e7 0c d3 1b
       -12 -43 5 -1 8 7 0 -6 31 25 25 23 -25 12 -45 27
000070 0c ef 03 15 0b 07 0f 20 fd 28 ef 11 de ed 02 dd
       12 -17 3 21 11 7 15 32 -3 40 -17 17 -34 -19 2 -35
000080 da ff 0c 1d f0 f3 09 ee 0d cb ea d5 e7 d0 f4 1d
       -38 -1 12 29 -16 -13 9 -18 13 -53 -22 -43 -25 -48 -12 29
000090 cb fa c9 81 06 03 16 e8 f3 d0 55 f7 20 2b de ed
       -53 -6 -55 -127 6 3 22 -24 -13 -48 85 -9 32 43 -34 -19
0000a0 cb db f0 f2 cf 60 b5 db 1b 13 0d d1 12 1b 04 1b
       -53 -37 -16 -14 -49 96 -75 -37 27 19 13 -47 18 27 4 27
0000b0 f3 fc 22 e4 e9 15 0c f2 02 0a 06 02 1f 30 0d f7
       -13 -4 34 -28 -23 21 12 -14 2 10 6 2 31 48 13 -9
0000c0 02 28 d9 fb e2 fc 1f d8 e1 44 e8 f3 c7 d1 40 f7
       2 40 -39 -5 -30 -4 31 -40 -31 68 -24 -13 -57 -47 64 -9
0000d0 f7 e2 ee 3e e5 02 de fe f0 28 a8 cb d7 0e ed d3
       -9 -30 -18 62 -27 2 -34 -2 -16 40 -88 -53 -41 14 -19 -45
0000e0 de f8 ee 39 93 c7 18 b3 c8 eb e0 0a a1 e3 dd e2
       -34 -8 -18 57 -109 -57 24 -77 -56 -21 -32 10 -95 -29 -35 -30
0000f0 dd f6 a7 d6 91 e7 dd c2 ae 0c c2 e7 d0 f4 07 e6
       -35 -10 -89 -42 -111 -25 -35 -62 -82 12 -62 -25 -48 -12 7 -26

model_6/conv2d_20/Conv2D i1 [96, 3, 3, 48]
000000 f5 da 3a b7 fc 35 e1 f4 0e 35 fa f8 28 b2 10 cc
       -11 -38 58 -73 -4 53 -31 -12 14 53 -6 -8 40 -78 16 -52
000010 00 d3 d7 b3 03 04 11 ce c9 06 cb 38 05 ce 28 0e
       0 -45 -41 -77 3 4 17 -50 -55 6 -53 56 5 -50 40 14
000020 b6 d3 fa 3c 17 b0 e5 cd 27 2b 09 06 0a e9 f9 fa
       -74 -45 -6 60 23 -80 -27 -51 39 43 9 6 10 -23 -7 -6
000030 0a 05 0a fd 1b f6 24 04 e1 23 ec 0a f1 05 16 e7
       10 5 10 -3 27 -10 36 4 -31 35 -20 10 -15 5 22 -25
000040 d8 22 f5 c4 35 1b 16 28 3b 09 fe 1a 18 c8 3e 37
       -40 34 -11 -60 53 27 22 40 59 9 -2 26 24 -56 62 55
000050 a0 00 37 40 e0 f1 0e 40 0c 3d 38 01 fb f3 1d f5
       -96 0 55 64 -32 -15 14 64 12 61 56 1 -5 -13 29 -11
000060 e5 08 a8 fc 2e fe 11 1d b7 ba f5 18 eb 3b dd f8
       -27 8 -88 -4 46 -2 17 29 -73 -70 -11 24 -21 59 -35 -8
000070 aa de ca da fa 2c de f5 36 01 0d 29 e7 13 c9 b8
       -86 -34 -54 -38 -6 44 -34 -11 54 1 13 41 -25 19 -55 -72
000080 3c 1f 08 f6 d8 fa 10 1f ff b3 08 e5 db f2 09 fc
       60 31 8 -10 -40 -6 16 31 -1 -77 8 -27 -37 -14 9 -4
000090 e0 eb f0 ec f2 b5 07 d5 c5 cc e0 ef c8 ce ff cd
       -32 -21 -16 -20 -14 -75 7 -43 -59 -52 -32 -17 -56 -50 -1 -51
0000a0 fd 11 df 1a ee f1 e7 09 1e a8 cb 1a cf da 04 b0
       -3 17 -33 26 -18 -15 -25 9 30 -88 -53 26 -49 -38 4 -80
0000b0 d3 fd 1b 25 02 bb 13 18 d1 09 06 e2 26 ba 07 ce
       -45 -3 27 37 2 -69 19 24 -47 9 6 -30 38 -70 7 -50
0000c0 ff 07 37 ec 24 e8 e6 20 11 08 11 df d8 f6 11 bd
       -1 7 55 -20 36 -24 -26 32 17 8 17 -33 -40 -10 17 -67
0000d0 c1 bf 02 f8 f9 be 20 bc 12 c3 1d 1f e2 ff d9 0b
       -63 -65 2 -8 -7 -66 32 -68 18 -61 29 31 -30 -1 -39 11
0000e0 e6 04 c0 1a bf 21 0f fd e9 20 dd eb f8 d6 45 1e
       -26 4 -64 26 -65 33 15 -3 -23 32 -35 -21 -8 -42 69 30
0000f0 ca 14 06 e4 f7 12 d4 06 04 15 32 f6 de 30 ee 28
       -54 20 6 -28 -9 18 -44 6 4 21 50 -10 -34 48 -18 40

model_6/dense_6/MatMul i1 [128, 4320] scale=0.0021610525 zero_point=0
000000 ef f0 02 03 01 08 f6 0f 0a 0b 01 f7 0c f2 0c f0
       -0.036737893 -0.03457684 0.004322105 0.0064831576 0.0021610525 0.01728842 -0.021610525 0.03241579 0.021610525 0.023771578 0.0021610525 -0.019449472 0.02593263 -0.030254737 0.02593263 -0.03457684
000010 03 07 ef f4 ed 0c f4 06 09 f3 10 fc 03 0e 0a f8
       0.0064831576 0.015127368 -0.036737893 -0.02593263 -0.041059997 0.02593263 -0.02593263 0.012966315 0.019449472 -0.028093683 0.03457684 -0.00864421 0.0064831576 0.030254737 0.021610525 -0.01728842
000020 08 0e 0e f9 f6 03 08 f7 03 ef 05 f3 0c 09 f1 0a
       0.01728842 0.030254737 0.030254737 -0.015127368 -0.021610525 0.0064831576 0.01728842 -0.019449472 0.0064831576 -0.036737893 0.010805262 -0.028093683 0.02593263 0.019449472 -0.03241579 0.021610525
000030 fc f5 07 f4 fd f4 fa 04 05 f7 08 0e 02 f6 f5 ff
       -0.00864421 -0.023771578 0.015127368 -0.02593263 -0.0064831576 -0.02593263 -0.012966315 0.00864421 0.010805262 -0.019449472 0.01728842 0.030254737 0.004322105 -0.021610525 -0.023771578 -0.0021610525
000040 f9 fc 0a 07 fa f9 f1 ee 08 04 0a f0 01 03 fc f7
       -0.015127368 -0.00864421 0.021610525 0.015127368 -0.012966315 -0.015127368 -0.03241579 -0.038898945 0.01728842 0.00864421 0.021610525 -0.03457684 0.0021610525 0.0064831576 -0.00864421 -0.019449472
000050 11 02 05 f5 fa 04 f9 ee ff fa fd f5 0b 07 fa 04
       0.036737893 0.004322105 0.010805262 -0.023771578 -0.012966315 0.00864421 -0.015127368 -0.038898945 -0.0021610525 -0.012966315 -0.0064831576 -0.023771578 0.023771578 0.015127368 -0.012966315 0.00864421
000060 f5 fb f8 08 fc 00 fa f6 05 00 00 06 0b 01 f8 fa
       -0.023771578 -0.010805262 -0.01728842 0.01728842 -0.00864421 0.0 -0.012966315 -0.021610525 0.010805262 0.0 0.0 0.012966315 0.023771578 0.0021610525 -0.01728842 -0.012966315
000070 f5 ee 0c fc 0b f7 02 fc f9 ff 06 f0 fd fe fc f1
       -0.023771578 -0.038898945 0.02593263 -0.00864421 0.023771578 -0.019449472 0.004322105 -0.00864421 -0.015127368 -0.0021610525 0.012966315 -0.03457684 -0.0064831576 -0.004322105 -0.00864421 -0.03241579
000080 06 f2 f5 f8 fc 0d 09 0c fc 0d 09 fc f1 f4 0d ee
       0.012966315 -0.030254737 -0.023771578 -0.01728842 -0.00864421 0.028093683 0.019449472 0.02593263 -0.00864421 0.028093683 0.019449472 -0.00864421 -0.03241579 -0.02593263 0.028093683 -0.038898945
000090 07 ff 07 02 f6 f0 03 02 0c 02 f6 0b 03 fd 09 f0
       0.015127368 -0.0021610525 0.015127368 0.004322105 -0.021610525 -0.03457684 0.0064831576 0.004322105 0.02593263 0.004322105 -0.021610525 0.023771578 0.0064831576 -0.0064831576 0.019449472 -0.03457684
0000a0 f0 fb ef 08 08 f7 09 fc ee fa 08 ef f2 08 f9 fe
       -0.03457684 -0.010805262 -0.036737893 0.01728842 0.01728842 -0.019449472 0.019449472 -0.00864421 -0.038898945 -0.012966315 0.01728842 -0.036737893 -0.030254737 0.01728842 -0.015127368 -0.004322105
0000b0 f0 03 f7 fc 0a 0c 0e 04 09 fd f9 08 f5 0e 03 fb
       -0.03457684 0.0064831576 -0.019449472 -0.00864421 0.021610525 0.02593263 0.030254737 0.00864421 0.019449472 -0.0064831576 -0.015127368 0.01728842 -0.023771578 0.030254737 0.0064831576 -0.010805262
0000c0 fe f2 ef 00 f0 ed 00 fa fe f9 f3 03 00 f6 09 ff
       -0.004322105 -0.030254737 -0.036737893 0.0 -0.03457684 -0.041059997 0.0 -0.012966315 -0.004322105 -0.015127368 -0.028093683 0.0064831576 0.0 -0.021610525 0.019449472 -0.0021610525
0000d0 03 ed 09 02 00 01 04 fa fc f2 0d f6 04 0c 00 02
       0.0064831576 -0.041059997 0.019449472 0.004322105 0.0 0.0021610525 0.00864421 -0.012966315 -0.00864421 -0.030254737 0.028093683 -0.021610525 0.00864421 0.02593263 0.0 0.004322105
0000e0 f8 0d 08 05 00 0c 09 07 0c 02 fd f0 f4 f2 fb f1
       -0.01728842 0.028093683 0.01728842 0.010805262 0.0 0.02593263 0.019449472 0.015127368 0.02593263 0.004322105 -0.0064831576 -0.03457684 -0.02593263 -0.030254737 -0.010805262 -0.03241579
0000f0 f4 f6 fe 00 05 fd 0d 00 f6 fc 08 f0 fe f8 0d f7
       -0.02593263 -0.021610525 -0.004322105 0.0 0.010805262 -0.0064831576 0.028093683 0.0 -0.021610525 -0.00864421 0.01728842 -0.03457684 -0.004322105 -0.01728842 0.028093683 -0.019449472

model_6/digit0/MatMul i1 [10, 128] scale=0.0034734071 zero_point=0
000000 0d 37 0d 13 df 18 f6 f4 d8 df c8 1f 2c ca cf d0
       0.045154292 0.19103739 0.045154292 0.06599473 -0.11462244 0.083361775 -0.03473407 -0.041680887 -0.13893628 -0.11462244 -0.1945108 0.10767562 0.15282992 -0.18756399 -0.17019695 -0.16672355
000010 e4 d2 dc 0f 39 db 2a 35 13 35 37 03 13 c6 0a b3
       -0.0972554 -0.15977673 -0.12504266 0.052101105 0.1979842 -0.12851606 0.1458831 0.18409058 0.06599473 0.18409058 0.19103739 0.010420222 0.06599473 -0.20145762 0.03473407 -0.26745236
000020 d8 cb c4 c6 f3 c4 0b 0b 15 1b 06 ef 30 1b e6 23
       -0.13893628 -0.18409058 -0.20840442 -0.20145762 -0.045154292 -0.20840442 0.03820748 0.03820748 0.07294155 0.09378199 0.020840444 -0.059047922 0.16672355 0.09378199 -0.090308584 0.121569246
000030 c4 28 11 f3 bb e4 fc dc 24 0b 28 db dc cb d3 dd
       -0.20840442 0.13893628 0.059047922 -0.045154292 -0.23966509 -0.0972554 -0.0138936285 -0.12504266 0.12504266 0.03820748 0.13893628 -0.12851606 -0.12504266 -0.18409058 -0.15630332 -0.121569246
000040 ec c2 d9 e7 2f 0f a7 c6 e8 f1 dd f3 f1 e0 1d e0
       -0.06946814 -0.21535124 -0.13546288 -0.086835176 0.16325013 0.052101105 -0.30913323 -0.20145762 -0.083361775 -0.052101105 -0.121569246 -0.045154292 -0.052101105 -0.11114903 0.10072881 -0.11114903
000050 d1 d7 ef 25 1a 21 12 2c 2a c9 f9 37 f4 09 ce d0
       -0.16325013 -0.1424097 -0.059047922 0.12851606 0.090308584 0.11462244 0.06252133 0.15282992 0.1458831 -0.19103739 -0.02431385 0.19103739 -0.041680887 0.031260666 -0.17367035 -0.16672355
000060 28 2c c3 21 ea d2 21 33 de c7 ad 32 e9 e9 df 07
       0.13893628 0.15282992 -0.21187784 0.11462244 -0.07641496 -0.15977673 0.11462244 0.17714377 -0.118095845 -0.1979842 -0.2882928 0.17367035 -0.079888366 -0.079888366 -0.11462244 0.02431385
000070 ea 10 d1 fa da 29 d1 b8 ee 04 fc 29 ea f2 f2 36
       -0.07641496 0.055574514 -0.16325013 -0.020840444 -0.13198946 0.1424097 -0.16325013 -0.25008532 -0.06252133 0.0138936285 -0.0138936285 0.1424097 -0.07641496 -0.0486277 -0.0486277 0.18756399
000080 11 36 f6 fb 38 dd 35 19 22 e9 e6 f5 cf 13 9b 10
       0.059047922 0.18756399 -0.03473407 -0.017367035 0.1945108 -0.121569246 0.18409058 0.086835176 0.118095845 -0.079888366 -0.090308584 -0.03820748 -0.17019695 0.06599473 -0.35081413 0.055574514
000090 23 36 f2 2d 15 0d 10 04 0c 30 2b d4 29 19 cd 0c
       0.121569246 0.18756399 -0.0486277 0.15630332 0.07294155 0.045154292 0.055574514 0.0138936285 0.041680887 0.16672355 0.1493565 -0.15282992 0.1424097 0.086835176 -0.17714377 0.041680887
0000a0 07 2a 1b 34 06 d0 fe 1d 0a b5 0e ef 08 2d 92 d6
       0.02431385 0.1458831 0.09378199 0.18061717 0.020840444 -0.16672355 -0.0069468142 0.10072881 0.03473407 -0.26050553 0.0486277 -0.059047922 0.027787257 0.15630332 -0.38207477 -0.1458831
0000b0 a1 08 f5 35 ca 02 0d f3 2a 04 16 2d 0a 15 fa f7
       -0.32997367 0.027787257 -0.03820748 0.18409058 -0.18756399 0.0069468142 0.045154292 -0.045154292 0.1458831 0.0138936285 0.07641496 0.15630332 0.03473407 0.07294155 -0.020840444 -0.031260666
0000c0 3d b5 ee 23 d9 31 09 01 2d fc e4 f5 1d 36 e8 12
       0.21187784 -0.26050553 -0.06252133 0.121569246 -0.13546288 0.17019695 0.031260666 0.0034734071 0.15630332 -0.0138936285 -0.0972554 -0.03820748 0.10072881 0.18756399 -0.083361775 0.06252133
0000d0 ac 1e 24 cf d9 19 e5 ed 07 39 d5 da 1e e0 16 d2
       -0.2917662 0.10420221 0.12504266 -0.17019695 -0.13546288 0.086835176 -0.09378199 -0.06599473 0.02431385 0.1979842 -0.1493565 -0.13198946 0.10420221 -0.11114903 0.07641496 -0.15977673
0000e0 e3 23 2d 35 10 b1 f6 34 f4 3c 0d 17 21 fa 05 cb
       -0.10072881 0.121569246 0.15630332 0.18409058 0.055574514 -0.27439916 -0.03473407 0.18061717 -0.041680887 0.20840442 0.045154292 0.079888366 0.11462244 -0.020840444 0.017367035 -0.18409058
0000f0 20 e5 2e 04 36 f2 12 08 df c7 f5 fd dd 28 17 30
       0.11114903 -0.09378199 0.15977673 0.0138936285 0.18756399 -0.0486277 0.06252133 0.027787257 -0.11462244 -0.1979842 -0.03820748 -0.010420222 -0.121569246 0.13893628 0.079888366 0.16672355

model_6/digit1/MatMul i1 [10, 128] scale=0.003723042 zero_point=0
000000 15 21 c2 2a d7 2b fb 14 aa 19 f3 f1 20 13 f3 c4
       0.07818388 0.12286039 -0.23082861 0.15636776 -0.15264472 0.1600908 -0.01861521 0.07446084 -0.3201816 0.09307605 -0.048399545 -0.055845633 0.11913735 0.0707378 -0.048399545 -0.22338253
000010 fa 0b f9 08 de fb 02 d7 fb d8 1e 0d f3 fb ca 05
       -0.022338253 0.040953465 -0.026061295 0.029784337 -0.12658343 -0.01861521 0.007446084 -0.15264472 -0.01861521 -0.14892168 0.11169127 0.048399545 -0.048399545 -0.01861521 -0.20104428 0.01861521
000020 0b fd b8 dd cd 07 0f 0a 04 cc ff c3 e2 12 ba da
       0.040953465 -0.011169126 -0.26805902 -0.13030647 -0.18987514 0.026061295 0.055845633 0.03723042 0.014892168 -0.19359818 -0.003723042 -0.22710557 -0.11169127 0.067014754 -0.26061293 -0.1414756
000030 c4 08 e3 f7 b7 22 04 f3 1a 10 28 d0 35 e8 ef 0f
       -0.22338253 0.029784337 -0.10796822 -0.033507377 -0.27178207 0.12658343 0.014892168 -0.048399545 0.09679909 0.059568673 0.14892168 -0.17870602 0.19732124 -0.08935301 -0.06329171 0.055845633
000040 c6 fd f4 2b 16 f5 f0 33 e9 0e ac 2c 02 ee f5 cb
       -0.21593644 -0.011169126 -0.044676505 0.1600908 0.08190693 -0.040953465 -0.059568673 0.18987514 -0.08562997 0.05212259 -0.31273553 0.16381386 0.007446084 -0.067014754 -0.040953465 -0.19732124
000050 ed fb bc fc 24 1f 1d 36 c9 13 e7 c6 f1 ea ef d1
       -0.0707378 -0.01861521 -0.25316685 -0.014892168 0.13402951 0.11541431 0.10796822 0.20104428 -0.20476732 0.0707378 -0.09307605 -0.21593644 -0.055845633 -0.08190693 -0.06329171 -0.17498298
000060 eb cd d4 11 20 16 d4 21 f0 f5 e9 fd f9 d6 db d7
       -0.07818388 -0.18987514 -0.16381386 0.06329171 0.11913735 0.08190693 -0.16381386 0.12286039 -0.059568673 -0.040953465 -0.08562997 -0.011169126 -0.026061295 -0.15636776 -0.13775256 -0.15264472
000070 ca 33 bf 33 ef 23 ce c9 b5 c9 ba f8 e3 0e eb da
       -0.20104428 0.18987514 -0.24199773 0.18987514 -0.06329171 0.13030647 -0.1861521 -0.20476732 -0.27922815 -0.20476732 -0.26061293 -0.029784337 -0.10796822 0.05212259 -0.07818388 -0.1414756
000080 ff d3 45 cf 07 e1 ef da 12 e9 02 1c 24 ed b4 9b
       -0.003723042 -0.1675369 0.2568899 -0.18242906 0.026061295 -0.11541431 -0.06329171 -0.1414756 0.067014754 -0.08562997 0.007446084 0.10424518 0.13402951 -0.0707378 -0.2829512 -0.37602726
000090 d3 e8 c8 fa cf 0d 14 fc f0 1e 1e 09 24 fb 13 f2
       -0.1675369 -0.08935301 -0.20849036 -0.022338253 -0.18242906 0.048399545 0.07446084 -0.014892168 -0.059568673 0.11169127 0.11169127 0.033507377 0.13402951 -0.01861521 0.0707378 -0.05212259
0000a0 cf fb 2b 16 15 ee ab d7 1e 03 e1 03 ce d5 cb d0
       -0.18242906 -0.01861521 0.1600908 0.08190693 0.07818388 -0.067014754 -0.31645858 -0.15264472 0.11169127 0.011169126 -0.11541431 0.011169126 -0.1861521 -0.1600908 -0.19732124 -0.17870602
0000b0 c6 d2 ec 1c 24 cf 02 1d f9 e4 17 cf f3 1f 30 e4
       -0.21593644 -0.17125994 -0.07446084 0.10424518 0.13402951 -0.18242906 0.007446084 0.10796822 -0.026061295 -0.10424518 0.08562997 -0.18242906 -0.048399545 0.11541431 0.17870602 -0.10424518
0000c0 1e 17 19 36 36 d2 bb db c2 01 0f dd 8f 2a 1b 25
       0.11169127 0.08562997 0.09307605 0.20104428 0.20104428 -0.17125994 -0.2568899 -0.13775256 -0.23082861 0.003723042 0.055845633 -0.13030647 -0.42070377 0.15636776 0.10052214 0.13775256
0000d0 28 02 c7 db 13 fd 0a ef cc ef 22 eb e8 1d 0b 10
       0.14892168 0.007446084 -0.2122134 -0.13775256 0.0707378 -0.011169126 0.03723042 -0.06329171 -0.19359818 -0.06329171 0.12658343 -0.07818388 -0.08935301 0.10796822 0.040953465 0.059568673
0000e0 03 0b 1a e8 eb 29 2b 14 f9 04 c7 de cd 12 e0 d0
       0.011169126 0.040953465 0.09679909 -0.08935301 -0.07818388 0.15264472 0.1600908 0.07446084 -0.026061295 0.014892168 -0.2122134 -0.12658343 -0.18987514 0.067014754 -0.11913735 -0.17870602
0000f0 14 d3 2f d3 cd f2 c8 29 28 fb 07 cb a8 2e e0 dc
       0.07446084 -0.1675369 0.17498298 -0.1675369 -0.18987514 -0.05212259 -0.20849036 0.15264472 0.14892168 -0.01861521 0.026061295 -0.19732124 -0.32762772 0.17125994 -0.11913735 -0.13402951

model_6/digit2/MatMul i1 [10, 128] scale=0.0034115985 zero_point=0
000000 04 1d d6 ed c5 07 94 38 f1 e5 ee c4 1a 32 01 be
       0.013646394 0.09893636 -0.14328714 -0.06482037 -0.20128432 0.02388119 -0.36845264 0.19104952 -0.051173978 -0.09211316 -0.061408773 -0.20469591 0.08870156 0.17057993 0.0034115985 -0.2251655
000010 21 b1 d5 29 f9 e9 08 dc e2 27 d2 18 e3 d3 e5 d7
       0.11258275 -0.2695163 -0.14669874 0.13987553 -0.02388119 -0.078466766 0.027292788 -0.122817546 -0.102347955 0.13305235 -0.15693353 0.081878364 -0.09893636 -0.15352193 -0.09211316 -0.13987553
000020 24 d6 08 ee bf 22 ff 11 22 16 2a f7 ed dd cc f9
       0.122817546 -0.14328714 0.027292788 -0.061408773 -0.2217539 0.11599435 -0.0034115985 0.057997175 0.11599435 0.07505517 0.14328714 -0.030704387 -0.06482037 -0.11940595 -0.17740312 -0.02388119
000030 00 18 fa e6 ea ed e7 cf 15 c8 08 df 37 2c fd ff
       0.0 0.081878364 -0.020469591 -0.08870156 -0.07505517 -0.06482037 -0.08528996 -0.16716832 0.07164357 -0.19104952 0.027292788 -0.11258275 0.18763793 0.15011033 -0.0102347955 -0.0034115985
000040 da d9 25 16 ea 2a 00 02 b9 ea cb 37 f6 26 06 34
       -0.12964074 -0.13305235 0.12622914 0.07505517 -0.07505517 0.14328714 0.0 0.006823197 -0.2422235 -0.07505517 -0.18081471 0.18763793 -0.034115985 0.12964074 0.020469591 0.17740312
000050 0b d0 f5 12 13 ee 39 12 0e 39 26 fe cb 14 f4 1d
       0.037527584 -0.16375673 -0.037527584 0.061408773 0.06482037 -0.061408773 0.1944611 0.061408773 0.04776238 0.1944611 0.12964074 -0.006823197 -0.18081471 0.06823197 -0.040939182 0.09893636
000060 14 2f 0e ea 3a d0 1d 2e b6 d6 f3 01 2b 2d f3 c6
       0.06823197 0.16034514 0.04776238 -0.07505517 0.19787271 -0.16375673 0.09893636 0.15693353 -0.25245827 -0.14328714 -0.04435078 0.0034115985 0.14669874 0.15352193 -0.04435078 -0.19787271
000070 06 04 15 0a 3b 32 9e c2 be bf b5 1c e8 d1 cb c5
       0.020469591 0.013646394 0.07164357 0.034115985 0.20128432 0.17057993 -0.33433664 -0.2115191 -0.2251655 -0.2217539 -0.2558699 0.09552476 -0.081878364 -0.16034514 -0.18081471 -0.20128432
000080 db d3 9d e5 f4 25 0c 1f 16 df f4 2c 2c e6 cb 0d
       -0.12622914 -0.15352193 -0.33774826 -0.09211316 -0.040939182 0.12622914 0.040939182 0.10575955 0.07505517 -0.11258275 -0.040939182 0.15011033 0.15011033 -0.08870156 -0.18081471 0.04435078
000090 12 1e df 2f d6 23 d3 f9 04 17 02 c6 39 0a 30 05
       0.061408773 0.102347955 -0.11258275 0.16034514 -0.14328714 0.11940595 -0.15352193 -0.02388119 0.013646394 0.078466766 0.006823197 -0.19787271 0.1944611 0.034115985 0.16375673 0.017057993
0000a0 fa 08 05 ca d1 1d df 33 2d e9 0d 0e 1b d0 ef 00
       -0.020469591 0.027292788 0.017057993 -0.18422632 -0.16034514 0.09893636 -0.11258275 0.17399153 0.15352193 -0.078466766 0.04435078 0.04776238 0.09211316 -0.16375673 -0.057997175 0.0
0000b0 0b 27 f9 d3 0f e2 08 e8 35 d2 f4 14 f0 e3 06 2c
       0.037527584 0.13305235 -0.02388119 -0.15352193 0.051173978 -0.102347955 0.027292788 -0.081878364 0.18081471 -0.15693353 -0.040939182 0.06823197 -0.054585576 -0.09893636 0.020469591 0.15011033
0000c0 d4 c1 19 f5 d1 0b cf fc fd 0f 1f 1d 0a f4 cf f6
       -0.15011033 -0.21493071 0.08528996 -0.037527584 -0.16034514 0.037527584 -0.16716832 -0.013646394 -0.0102347955 0.051173978 0.10575955 0.09893636 0.034115985 -0.040939182 -0.16716832 -0.034115985
0000d0 1d 27 e0 0a d6 d3 d1 e1 07 11 0a 1f 3c 0b d8 d6
       0.09893636 0.13305235 -0.10917115 0.034115985 -0.14328714 -0.15352193 -0.16034514 -0.10575955 0.02388119 0.057997175 0.034115985 0.10575955 0.20469591 0.037527584 -0.13646394 -0.14328714
0000e0 f7 fb 32 22 39 41 2a 12 e3 a1 45 f8 d0 29 02 2d
       -0.030704387 -0.017057993 0.17057993 0.11599435 0.1944611 0.2217539 0.14328714 0.061408773 -0.09893636 -0.32410187 0.23540029 -0.027292788 -0.16375673 0.13987553 0.006823197 0.15352193
0000f0 01 c8 8f f8 db de 24 d0 f8 20 f2 12 e0 23 fd ce
       0.0034115985 -0.19104952 -0.38551062 -0.027292788 -0.12622914 -0.11599435 0.122817546 -0.16375673 -0.027292788 0.10917115 -0.04776238 0.061408773 -0.10917115 0.11940595 -0.0102347955 -0.17057993

model_6/digit3/MatMul i1 [10, 128] scale=0.004142571 zero_point=0
000000 07 fd de 24 f3 2f c1 05 db 30 eb fd 2b 2a e1 c6
       0.028997995 -0.012427712 -0.1408474 0.14913255 -0.05385342 0.19470082 -0.26098195 0.020712854 -0.15327512 0.19884339 -0.086993985 -0.012427712 0.17813054 0.17398797 -0.1284197 -0.24026911
000010 d5 ed fe ef 1d e7 03 26 16 25 2c dc df ef 0b d9
       -0.17813054 -0.07870884 -0.008285142 -0.0704237 0.120134555 -0.10356427 0.012427712 0.15741768 0.09113656 0.15327512 0.18227312 -0.14913255 -0.13670483 -0.0704237 0.04556828 -0.16156027
000020 28 2a cd 27 fd 2e df 08 07 06 e1 0e cd f5 f5 dc
       0.16570283 0.17398797 -0.2112711 0.16156027 -0.012427712 0.19055825 -0.13670483 0.033140566 0.028997995 0.024855424 -0.1284197 0.05799599 -0.2112711 -0.04556828 -0.04556828 -0.14913255
000030 d9 1e cb e2 f3 ef da 16 f1 e4 fd f1 2b cc fe cb
       -0.16156027 0.12427712 -0.21955626 -0.12427712 -0.05385342 -0.0704237 -0.15741768 0.09113656 -0.06213856 -0.11599198 -0.012427712 -0.06213856 0.17813054 -0.21541367 -0.008285142 -0.21955626
000040 f7 c4 ea df d7 ff dc 02 cf 01 e1 05 e9 fd e1 1f
       -0.037283137 -0.24855424 -0.09113656 -0.13670483 -0.1698454 -0.004142571 -0.14913255 0.008285142 -0.20298597 0.004142571 -0.1284197 0.020712854 -0.09527913 -0.012427712 -0.1284197 0.1284197
000050 e3 eb be e4 d8 f6 cf f5 06 dc f0 2c db fe 04 2e
       -0.120134555 -0.086993985 -0.27340966 -0.11599198 -0.16570283 -0.04142571 -0.20298597 -0.04556828 0.024855424 -0.14913255 -0.06628113 0.18227312 -0.15327512 -0.008285142 0.016570283 0.19055825
000060 1b ef dd db 05 fa 0d 24 e0 d3 e1 08 2c 12 21 00
       0.11184941 -0.0704237 -0.14498998 -0.15327512 0.020712854 -0.024855424 0.05385342 0.14913255 -0.13256226 -0.18641569 -0.1284197 0.033140566 0.18227312 0.074566275 0.13670483 0.0
000070 0e 22 cf 16 16 1c bb e9 e0 e1 0f ea fc 17 ce e3
       0.05799599 0.1408474 -0.20298597 0.09113656 0.09113656 0.11599198 -0.28583738 -0.09527913 -0.13256226 -0.1284197 0.06213856 -0.09113656 -0.016570283 0.09527913 -0.20712854 -0.120134555
000080 04 0f ec 1d d3 fb cd ee 08 2a 0b 06 05 25 c6 02
       0.016570283 0.06213856 -0.08285142 0.120134555 -0.18641569 -0.020712854 -0.2112711 -0.074566275 0.033140566 0.17398797 0.04556828 0.024855424 0.020712854 0.15327512 -0.24026911 0.008285142
000090 14 19 1b 0e 0c 1f 0e 0f 07 df 05 1b d1 df a6 22
       0.08285142 0.10356427 0.11184941 0.05799599 0.049710847 0.1284197 0.05799599 0.06213856 0.028997995 -0.13670483 0.020712854 0.11184941 -0.19470082 -0.13670483 -0.37283137 0.1408474
0000a0 13 2f 2c e6 24 db 05 f2 d6 15 e0 29 08 da 19 e8
       0.07870884 0.19470082 0.18227312 -0.10770684 0.14913255 -0.15327512 0.020712854 -0.05799599 -0.17398797 0.086993985 -0.13256226 0.1698454 0.033140566 -0.15741768 0.10356427 -0.099421695
0000b0 e5 02 d3 1a 25 e4 cd cc 0b ef 0b d4 fc 22 f5 27
       -0.11184941 0.008285142 -0.18641569 0.10770684 0.15327512 -0.11599198 -0.2112711 -0.21541367 0.04556828 -0.0704237 0.04556828 -0.18227312 -0.016570283 0.1408474 -0.04556828 0.16156027
0000c0 2e b0 fd 30 f5 cc ea da 14 d2 20 df e3 21 1b fc
       0.19055825 -0.33140567 -0.012427712 0.19884339 -0.04556828 -0.21541367 -0.09113656 -0.15741768 0.08285142 -0.19055825 0.13256226 -0.13670483 -0.120134555 0.13670483 0.11184941 -0.016570283
0000d0 1c ec 05 13 2e fc d4 19 d3 29 1d f6 0c 28 fd 31
       0.11599198 -0.08285142 0.020712854 0.07870884 0.19055825 -0.016570283 -0.18227312 0.10356427 -0.18641569 0.1698454 0.120134555 -0.04142571 0.049710847 0.16570283 -0.012427712 0.20298597
0000e0 00 04 01 2d 10 06 e0 07 f9 df c5 20 0e e8 19 fe
       0.0 0.016570283 0.004142571 0.18641569 0.06628113 0.024855424 -0.13256226 0.028997995 -0.028997995 -0.13670483 -0.24441168 0.13256226 0.05799599 -0.099421695 0.10356427 -0.008285142
0000f0 fd 1e be 2a 13 ec 05 d3 11 1c e8 18 1f da 2b 0e
       -0.012427712 0.12427712 -0.27340966 0.17398797 0.07870884 -0.08285142 0.020712854 -0.18641569 0.0704237 0.11599198 -0.099421695 0.099421695 0.1284197 -0.15741768 0.17813054 0.05799599
